Model/ModelSave/GCNModel_train_acc_0.7891347566773274_val_acc_0.7956431535269709_epoch_200.pth (torch, 463631 bytes, 8 tensors)

weight f4 [7137, 16]
0.021110332 -0.0031073452 0.004824756 0.013202543 0.015846655 -0.009723984 0.0216375 -0.010463415
-0.026504941 0.0043790173 -0.0019105589 0.012726812 -0.012630898 0.027955111 -0.020668725 -0.009796562
-0.0091137495 -0.018353097 -0.007030914 -0.042403955 -0.021080054 0.027297888 -0.02191677 0.017033104
0.025480004 -0.032041654 -0.012434598 -0.024037063 0.015512608 -0.0085246675 -0.0018046868 -0.01916806
0.012057428 -0.00044140598 0.009881799 -0.010875496 0.038518894 -0.0015039917 0.01299972 -0.0031766887
-0.012537975 0.010027642 0.010813396 0.02263952 -0.0030596578 0.007825142 -0.0058646984 -0.0065352614
-0.036974344 -0.024341827 -0.035817306 -0.0077561373 -0.01099045 0.019225609 -0.021930376 -0.012605219
0.01015505 -0.010201011 -0.0065837232 -0.0063542775 0.017207507 0.012639231 -0.011493194 -0.010310456
0.015831036 0.015344738 0.0018240142 0.011585896 -0.007275278 -0.011635546 0.0042388025 -0.005268478
-0.009663191 0.016636755 -0.025941938 -0.0011594954 -0.02466531 -0.017618133 -0.019978378 -0.028452253
0.011869818 0.0062593925 0.0034887784 -0.022978703 -0.033551417 0.02303649 0.0041677067 -0.014065097
-0.023802212 -0.016936103 -0.0078639025 -0.00606297 0.01109851 -0.018662604 -0.0040010116 -0.023755778
-0.011880219 -0.0005096943 -0.009208164 -0.024768049 -0.03078681 0.023610832 -0.02366857 -0.035845652
0.002418602 -0.014055562 -0.018485872 -0.013972604 0.0091856625 0.011276068 -0.0054924693 -0.022226473
-0.018676382 0.0022746169 -0.0036710235 -0.04320856 0.007656398 0.04350169 -0.022552924 -0.020866405
0.01286976 -0.016320743 -0.024226721 -0.014064804 0.039235774 0.023924643 0.004478017 -0.004656274
-0.019419624 0.021925837 -0.018520946 9.217532e-06 0.013515411 0.0060473196 -0.00791628 0.022547118
0.002817573 -0.018496072 -0.00069515035 0.00046395138 0.019255342 0.018073115 0.032700073 0.0071421806
0.0012554133 0.017675271 0.0006628349 -0.0010058745 0.0023690844 0.04002843 -0.010054098 0.013172811
0.024391359 -0.0027943496 0.0066080303 0.0027219441 0.02863056 0.008055699 0.013378892 0.010945354
-0.011656609 -0.01818986 0.009309875 0.010009922 0.0060338085 -0.015002496 0.008452637 -0.017172586
0.01609681 0.00809725 0.018909091 0.014724323 -0.024403367 -0.023935338 -0.026029676 -0.025387637
0.026071317 -0.010627566 -0.007117791 0.023391107 -0.013728779 -0.04013407 0.013833091 -0.005769668
-0.026652072 -0.007857789 0.016445799 0.023099266 -0.041016497 0.008204417 -0.005780857 -0.014753893
-0.015744615 -0.013003721 -0.018337578 0.00073724694 -0.021544455 -0.004331362 -0.0074632503 -0.0022752257
-0.01145474 -0.00036457132 -0.0017771157 0.005189135 -0.025773233 -0.008102173 -0.009823242 -0.0036862667
-0.020247756 -0.034763683 -0.03143264 -0.010733595 0.04094735 0.030440915 -0.017334796 0.070023194
0.07910416 -0.004003652 0.009268444 -0.008732125 0.06076105 0.0528352 0.005519401 0.004673147
0.018376919 0.0011330362 0.0138758095 -0.014324173 -0.0040033753 -0.018529879 0.014599441 -0.06328192
-0.068119295 0.0013994907 -0.017605513 0.011914829 -0.0133134965 -0.012406501 -0.009308412 -0.015074801
0.025786243 0.040217515 0.025618017 0.023938216 0.013283079 -0.035585225 0.014519772 -0.014416051
-0.029535035 0.011080161 -0.017237933 0.004502342 -0.0018926058 0.00275029 0.023952488 0.016737219
00000000: 93ef ac3c 9aa4 4bbb fd18 9e3b 7b4f 583c
00000010: d8d0 813c 5851 1fbc 2041 b13c be6e 2bbc
00000020: e420 d9bc dc7d 8f3b b86b faba 1e84 503c
00000030: d3f1 4ebc 1e02 e53c 7551 a9bc c281 20bc
00000040: d651 15bc 3c59 96bc 9563 e6bb c5af 2dbd
00000050: 14b0 acbc d29f df3c cc8a b3bc 0289 8b3c
00000060: 71bb d03c 1c3e 03bd 7cba 4bbc 60e9 c4bc
00000070: 9828 7e3c 0cab 0bbc 3e8b ecba 5606 9dbc
00000080: 858c 453c 826c e7b9 45e7 213c 232f 32bc
00000090: fdc5 1d3d 9621 c5ba c7fc 543c fe2f 50bb
000000a0: 146c 4dbc fb4a 243c ac2a 313c 8476 b93c
000000b0: 8a84 48bb 0635 003c a82c c0bb bf25 d6bb
000000c0: 6972 17bd 8368 c7bc 2bb5 12bd 3227 febb
000000d0: 4a11 34bc 067f 9d3c 55a7 b3bc 1f86 4ebc
000000e0: 5e61 263c 2422 27bc 46bc d7bb 8b37 d0bb
000000f0: c2f6 8c3c c714 4f3c f34d 3cbc 30ed 28bc
00000100: 17b0 813c 7f68 7b3c c313 ef3a c5d2 3d3c
00000110: 7565 eebb 04a3 3ebc a7e5 8a3b 32a3 acbb
00000120: 5c52 1ebc ce49 883c 3084 d4bc 36fa 97ba
00000130: e70e cabc e753 90bc b2a9 a3bc b314 e9bc
00000140: a079 423c 971b cd3b fda3 643b d53d bcbc
00000150: 366d 09bd 05b7 bc3c 4291 883b 4b71 66bc
00000160: dbfc c2bc 95bd 8abc 99d7 00bc e1ab c6bb
00000170: 86d6 353c 51e2 98bc eb1a 83bb 7a9b c2bc
00000180: 40a5 42bc 019d 05ba d7dd 16bc 5de6 cabc
00000190: 9f34 fcbc 816b c13c 97e4 c1bc e4d2 12bd
000001a0: 6881 1e3b 4d49 66bc af6f 97bc 59ed 64bc
000001b0: 767f 163c 42bf 383c 2cfa b3bb 4b14 b6bc
000001c0: 36ff 98bc bd11 153b 8e95 70bb 76fb 30bd
000001d0: 86e2 fa3b d42e 323d e9c0 b8bc 06f0 aabc
000001e0: b0db 523c 14b3 85bc 1e77 c6bc 1070 66bc
000001f0: b1b5 203d 9dfd c33c 54bc 923b a893 98bb
00000200: e715 9fbc d09d b33c 3db9 97bc 00a5 1a37
00000210: be6f 5d3c 9828 c63b 49b3 01bc bcb4 b83c
00000220: 08a7 383b 1385 97bc c03a 36ba 803e f339
00000230: 61bd 9d3c 120e 943c 83f0 053d f408 ea3b
00000240: ae8c a43a bbcb 903c 19c2 2d3a 8cd7 83ba
00000250: a442 1b3b daf4 233d f2b9 24bc c6d2 573c
00000260: 63d0 c73c 6821 37bb 2d88 d83b a562 323b
00000270: a38a ea3c 0dfc 033c 2433 5b3c 2454 333c
00000280: 5dfb 3ebc e702 95bc 7288 183c a800 243c
00000290: 41b7 c53b 07cd 75bc ee7c 0a3c 86ad 8cbc
000002a0: 75dd 833c 54aa 043c 3de7 9a3c 493e 713c
000002b0: 92e9 c7bc 0b14 c4bc 303c d5bc bcf9 cfbc
000002c0: 8493 d53c 3e1f 2ebc 5c3c e9bb b59e bf3c
000002d0: acee 60bc 9f63 24bd 30a4 623c 7c0f bdbb
000002e0: 7255 dabc f5bd 00bc 57b9 863c ac3a bd3c
000002f0: ea00 28bd d26b 063c 586d bdbb 50ba 71bc
00000300: dafa 80bc 8f0d 55bc b038 96bc ce43 413a
00000310: ff7d b0bc 19ee 8dbb 488e f4bb f41b 15bb
00000320: a9ac 3bbc ef23 bfb9 1cee e8ba 9f09 aa3b
00000330: 6322 d3bc fabe 04bc aaf1 20bc 4b95 71bb
00000340: 9fde a5bc 5d64 0ebd 83bf 00bd f6db 2fbc
00000350: 69b8 273d 3a5f f93c b401 8ebc 5268 8f3d
00000360: 5d01 a23d 1131 83bb acda 173c 3011 0fbc
00000370: 94e0 783d b969 583d 17dc b43b 3321 993b
00000380: 318b 963c 6382 943a 5d57 633c f0af 6abc
00000390: bf2e 83bb f9cb 97bc 7e32 6f3c f499 81bd
000003a0: 2182 8bbd 1e6f b73a 7039 90bc 6a36 433c
000003b0: da20 5abc a344 4bbc 4f82 18bc 4cfc 76bc
000003c0: ac3d d33c 1fbb 243d e0dc d13c 141a c43c
000003d0: 45a1 593c d0c1 11bd 56e4 6d3c 4d31 6cbc
000003e0: 75f3 f1bc 9089 353c 9136 8dbc 6288 933b
000003f0: 5011 f8ba 363e 343b 0238 c43c 7e1c 893c

bias f4 [16]
0.21316803 0.17031474 0.18166165 0.15804213 0.022421474 0.04599468 0.20060289 0.06254663
0.050826892 0.16762629 0.029143699 0.17256197 0.06692594 0.050584085 -0.028881952 0.019616753
00000000: b848 5a3e fd66 2e3e 8305 3a3e ccd5 213e
00000010: 3dad b73c eb64 3c3d d86a 4d3e 7318 803d
00000020: dc2f 503d 3aa6 2b3e c4be ee3c 16b4 303e
00000030: 7810 893d 4231 4f3d d899 ecbc 50b3 a03c

weight f4 [16, 16]
-0.07104756 0.27626723 -0.11266733 -0.050696492 0.23406215 -0.063699305 0.3565465 -0.06763814
-0.084975064 -0.07883995 0.1583339 0.25159913 0.28131598 0.26803902 0.3350875 0.27379367
-0.07120906 0.1506442 -0.07548509 -0.022600539 0.15442345 -0.029629927 0.14435889 -0.09236456
0.027682923 -0.062399913 0.119500734 0.13747689 0.21573587 0.1577035 0.12283479 0.14140546
-0.08865917 0.3808698 -0.06752612 -0.060793858 0.1787289 -0.0776407 0.26331827 -0.07170003
-0.090655684 -0.08068967 0.33976996 0.32156897 0.22451098 0.28690994 0.3889826 0.31371132
-0.078932926 0.113136984 -0.11489954 -0.060492054 0.099076554 -0.09297635 0.03668077 -0.015886854
-0.050182845 -0.10183346 0.14613712 0.058699246 0.15366898 0.0919297 0.045752604 0.045352716
-0.11567071 0.0045451736 -0.0236053 -0.08337849 -0.021761373 -0.054756872 -0.2790084 -0.116888724
-0.029251438 -0.014274873 -0.20734034 -0.31960675 0.010326773 -0.022039488 -0.012323417 -0.2667169
0.12629649 -0.38051197 0.13219498 0.18275848 -0.17173591 0.1374373 -0.24220355 0.15576324
0.10795949 0.11433227 -0.23001169 -0.40615922 0.066524245 -0.43813118 -0.11374196 -0.595505
-0.010961127 0.19955689 0.0061177462 -0.114979945 0.0782067 -0.07308404 0.284336 -0.059986707
-0.07179829 0.011140992 0.2585052 0.15076639 0.20268522 0.103931114 0.21429276 0.15048069
-0.0066768406 -0.15608235 -0.025499273 -0.1054242 0.100177005 -0.06489924 -0.12953125 0.011811079
-0.0250853 -0.02219029 -0.2074463 -0.42725256 -0.17107072 -0.06866027 -0.41403598 -0.53086096
-0.0147718275 -0.72038627 0.005786691 0.04532622 0.04687181 0.023220234 -0.3104131 -0.000368658
0.004552603 0.016533002 -0.44961062 -0.74217135 -0.2956431 0.112038545 -0.026986627 -0.6460003
-0.08383025 0.16434929 -0.06243826 -0.051502913 0.148014 -0.068544075 0.13033645 -0.09768376
-0.0860753 -0.06616074 0.09991133 0.10802321 0.18707757 0.18457954 0.20207514 0.10979429
-0.080188416 0.009487551 -0.08333016 -0.17265941 0.010251081 -0.10885734 -0.0073409392 -0.06520075
-0.08065951 -0.11928103 0.0025153798 -0.13874818 -0.006835976 0.04556283 -0.33622363 -0.026576191
0.014882935 0.1381938 -0.034922507 -0.07951535 0.11989379 0.038058504 0.1911901 -0.120919384
-0.129838 -0.07978581 0.18376471 0.10451873 0.19442159 0.089418516 0.16111746 0.12210604
-0.0034056453 -0.46120512 -0.011988578 0.011704798 -0.41134277 -0.021542618 0.015860014 -0.011085728
-0.0060183066 -0.0002442989 -0.04766671 -0.46513584 -0.21226525 -0.18118727 -0.054703925 -0.42976156
-0.09338899 -0.4970346 -0.073155515 -0.070626244 -0.22473514 -0.09455346 -0.009322837 -0.10910464
-0.042766135 -0.022524945 -0.3374569 0.034179114 0.02665782 0.05571199 -0.5905848 0.0088410005
0.019807164 -0.039544832 0.036329683 0.054963563 -0.042435564 0.007364021 -0.04478638 -0.1388474
0.03631532 -0.03668109 -0.053388115 0.0042750672 0.054113396 -0.13037752 -0.16057836 -0.1513236
-0.03613542 -0.0068048663 -0.032657877 -0.08576039 0.008877817 -0.08030357 0.029046686 -0.10091015
-0.10786007 -0.004216737 0.0068754223 -0.007064879 -0.0074297655 -0.21240614 -0.13615246 -0.13511078
00000000: 6281 91bd e672 8d3e 21be e6bd 20a7 4fbd
00000010: fdad 6f3e c874 82bd 438d b63e dd85 8abd
00000020: 6807 aebd d776 a1bd 4822 223e 9ad1 803e
00000030: a608 903e 693c 893e 9790 ab3e af2e 8c3e
00000040: 0ed6 91bd 7942 1a3e ed97 9abd c424 b9bc
00000050: 2e21 1e3e 76ba f2bc d1d2 133e a129 bdbd
00000060: 4cc7 e23c 0d97 7fbd cdbc f43d bec6 0c3e
00000070: dde9 5c3e 077d 213e ce90 fb3d 98cc 103e
00000080: f092 b5bd 5e01 c33e 224b 8abd fb02 79bd
00000090: b504 373e 1602 9fbd a7d1 863e 77d7 92bd
000000a0: b0a9 b9bd a040 a5bd 54f6 ad3e b0a4 a43e
000000b0: 35e6 653e dce5 923e ba28 c73e c59e a03e
000000c0: 96a7 a1bd 5db4 e73d 7350 ebbd 84c6 77bd
000000d0: a6e8 ca3d 626a bebd 933e 163d 2625 82bc
000000e0: 878c 4dbd 108e d0bd f8a4 153e 9f6e 703d
000000f0: 675b 1d3e a345 bc3d 1567 3b3d c5c3 393d
00000100: c4e4 ecbd aeef 943b e75f c1bc 57c2 aabd
00000110: e844 b2bc be48 60bd 30da 8ebe 5b63 efbd
00000120: b6a0 efbc 28e1 69bc 0751 54be 7fa3 a3be
00000130: a031 293c 288c b4bc 28e8 49bc 1e8f 88be
00000140: de53 013e 77d2 c2be 1f5e 073e 0a25 3b3e
00000150: 8adb 2fbe 5dbc 0c3e 3504 78be 6680 1f3e
00000160: dd19 dd3d 0a27 ea3d 2f88 6bbe 1af4 cfbe
00000170: dd3d 883d bb52 e0be 8bf1 e8bd 0473 18bf
00000180: 4c96 33bc a458 4c3e 6077 c83b 9b7a ebbd
00000190: d62a a03d 16ad 95bd 7d94 913e 9fb4 75bd
000001a0: fb0a 93bd b588 363c cb5a 843e 8162 1a3e
000001b0: b78c 4f3e d6d9 d43d 906f 5b3e 9c17 1a3e
000001c0: 66c9 dabb 0dd4 1fbe dae3 d0bc a5e8 d7bd
000001d0: 9a29 cd3d e5e9 84bd d7a3 04be 4283 413c
000001e0: b07f cdbc 69c8 b5bc ce6c 54be d9c0 dabe
000001f0: 2a2d 2fbe c19d 8cbd 86fc d3be 81e6 07bf
00000200: 8905 72bc 3c6b 38bf 489e bd3b fda7 393d
00000210: a8fc 3f3d 5c38 be3c 77ee 9ebe 7048 c1b9
00000220: 002e 953b 3870 873c 5d33 e6be f1fe 3dbf
00000230: 885e 97be 7774 e53d 0f13 ddbc 4760 25bf
00000240: 32af abbd 2e4b 283e 43bf 7fbd b8f4 52bd
00000250: fb90 173e d660 8cbd eb76 053e 6c0e c8bd
00000260: 3f48 b0bd 487f 87bd 509e cc3d 463b dd3d
00000270: 4391 3f3e 6b02 3d3e c9ec 4e3e d4db e03d
00000280: d339 a4bd ac71 1b3c 01a9 aabd a1cd 30be
00000290: 26f4 273c 99f0 debd 438c f0bb f987 85bd
000002a0: d030 a5bd 9d49 f4bd 12d9 243b 0114 0ebe
000002b0: 5300 e0bb 17a0 3a3d 8125 acbe 50b6 d9bc
000002c0: 8ed7 733c ad82 0d3e e70a 0fbd f2d8 a2bd
000002d0: e08a f53d 3ce3 1b3d 56c7 433e 95a4 f7bd
000002e0: 41f4 04be be66 a3bd d12c 3c3e ea0d d63d
000002f0: 7416 473e 0e21 b73d fafb 243e bb12 fa3d
00000300: 3f31 5fbb 1423 ecbe be6b 44bc 7bc5 3f3c
00000310: 859b d2be 257a b0bc dcec 813c eaa0 35bc
00000320: 3735 c5bb 3e15 80b9 2b3e 43bd 4926 eebe
00000330: 105c 59be 2889 39be 3911 60bd b509 dcbe
00000340: ba42 bfbd 527b febe 8fd2 95bd 7ea4 90bd
00000350: f820 66be 3fa5 c1bd d0be 18bc 4172 dfbd
00000360: 8b2b 2fbd 3c86 b8bc 27c7 acbe 66ff 0b3d
00000370: 8061 da3c 4132 643d 9130 17bf d8d9 103c
00000380: a242 a23c c3f9 21bd 6fce 143d 7921 613d
00000390: ead0 2dbd e34d f13b ec71 37bd 032e 0ebe
000003a0: 5fbf 143d e93e 16bd 7fad 5abd dd15 8c3b
000003b0: 02a6 5d3d af81 05be a76e 24be 93f4 1abe
000003c0: bc02 14bd 5bfb debb 44c4 05bd 25a3 afbd
000003d0: 4374 113c 3376 a4bd 51f3 ed3c fba9 cebd
000003e0: bee5 dcbd 8e2c 8abb 394b e13b 8080 e7bb
000003f0: 6475 f3bb ff80 59be 8d6b 0bbe 7b5a 0abe

bias f4 [16]
-0.06759619 0.2971622 -0.04171316 -0.07657992 0.2929762 -0.11646898 0.3012 -0.0678741
-0.0569532 -0.051630784 0.32595727 0.33459756 0.21566883 0.22932905 0.254647 0.33419323
00000000: df6f 8abd a525 983e 6bdb 2abd efd5 9cbd
00000010: fa00 963e 4a87 eebd e336 9a3e 9301 8bbd
00000020: c247 69bd cd7a 53bd dfe3 a63e 5f50 ab3e
00000030: 4ad8 5c3e 3cd5 6a3e 1761 823e 601b ab3e

weight f4 [16, 32]
-0.052973676 0.07099709 -0.016180506 -0.024487976 0.06974024 -0.024249047 0.08776568 -0.035833657
0.009814104 0.0015251312 0.08717878 0.043349158 0.027428309 -0.106762245 0.089187585 0.016253201
-0.0037689484 -0.15818393 -0.050154466 0.02187093 -0.30993962 -0.022894584 -0.2733971 0.012209491
0.0019909954 0.007408633 -0.2534702 -0.1358163 -0.35511842 -0.31049967 -0.16510804 -0.16149569
-0.022048986 -0.104215756 0.006141439 -0.035349414 0.03743057 -0.007604219 -0.028975688 -0.007618917
0.021401176 0.0406139 0.0033063553 -0.011768103 0.062388513 0.038522787 -0.049579125 -0.029573692
-0.11425111 0.38935247 -0.14516477 -0.0821799 0.13376349 -0.06732981 0.18192898 -0.111042805
-0.18823291 -0.14851561 0.20422646 0.44738713 0.03830136 0.091010354 0.3122681 0.43139952
-0.02190982 0.00052270084 -0.015767023 -0.0021786445 -0.0015667952 -0.0044381334 -0.0038455313 0.0023513872
-0.027711224 -0.006774869 0.00045790305 -0.00044262217 -0.0017225458 -0.014064475 0.0014465381 -0.0009957997
-0.054353178 -0.0017227442 -0.0041945325 -0.11114607 -0.0015310295 -0.06937255 0.007254677 -0.062525645
0.06305465 -0.044276852 0.0008687902 -0.001826072 2.0163774e-05 -0.0034321588 -0.0018308541 -0.002367252
0.005607036 -0.078346804 0.013797166 -0.02565766 0.047982555 0.0002641438 -0.038763233 0.012606686
0.021711584 0.03007528 -0.03554921 -0.07294909 0.057921175 0.002712587 -0.034464374 -0.027772995
-0.07311168 0.40474328 -0.124269515 -0.07567257 0.24613723 -0.08945389 0.23952834 -0.112345085
-0.18637277 -0.112277165 0.28294587 0.36969727 0.22075011 0.10248005 0.3426259 0.37357002
0.00030829362 0.06520155 0.00062646216 0.031002026 0.073825985 -0.024698315 0.12704663 0.016550275
-0.01381402 0.0062635373 0.1378898 0.04548607 0.010325291 -0.079384245 0.058820207 0.0052799187
-0.008243876 -0.142545 -0.03897201 0.024540154 -0.22009718 -0.01028971 -0.23997499 0.023961524
-0.033750083 0.0017945229 -0.18019827 -0.13442872 -0.33010268 -0.27003238 -0.13593964 -0.1560185
0.023389395 0.08500545 0.037425514 0.025191579 0.04943316 -0.00036539644 0.11913728 -0.022585033
-0.05012149 -0.039908037 0.025096718 0.07114368 0.04296552 -0.057135154 0.112023406 0.036770806
-0.009794276 -0.101852626 -0.020384986 0.022766192 -0.24264438 -0.0038980315 -0.25667706 0.027584096
-0.03093961 -0.027007941 -0.21969686 -0.14856465 -0.3120542 -0.25503063 -0.16940136 -0.054708507
-0.01766498 0.071282096 0.004200269 0.009690605 0.03838536 -0.020674659 0.06475211 -0.0002947892
-0.0005197516 -0.00056564476 0.09265224 0.046421498 -0.008163306 -0.10295444 0.10095874 0.012904083
-0.0040364973 -0.16291432 -0.033045344 0.017312335 -0.33528063 -0.0148542635 -0.29257226 0.015613917
-0.02979007 -0.010317442 -0.24813677 -0.15828618 -0.3637796 -0.29869136 -0.17151932 -0.16057694
0.009214157 -0.11494362 0.0053301384 -0.02930215 -0.055266365 -0.014423077 -0.03441014 -0.0056942003
0.023594733 -0.020421268 -0.06491968 -0.06503738 0.05356885 0.051767528 -0.060520288 -0.027643414
-0.0592281 0.36976448 -0.046180584 -0.054677423 0.16798465 -0.0121871345 0.22738871 -0.029613644
-0.08377034 -0.049869098 0.24217092 0.43753886 0.43260375 0.0919759 0.34730718 0.40911594
00000000: edfa 58bd ec66 913d fb8c 84bc 029b c8bc
00000010: f9d3 8e3d f0a5 c6bc 7ebe b33d 50c6 12bd
00000020: 56cb 203c e9e6 c73a ca8a b23d e38e 313d
00000030: 55b1 e03c 2aa6 dabd fba7 b63d 6f25 853c
00000040: 7600 77bb f8fa 21be c56e 4dbd aa2a b33c
00000050: 68b0 9ebe 6c8d bbbc b4fa 8bbe 510a 483c
00000060: 5c7b 023b 1ec4 f23b d9c6 81be 6e13 0bbe
00000070: 15d2 b5be d0f9 9ebe 1512 29be 205f 25be
00000080: 13a0 b4bc 126f d5bd 203e c93b 8cca 10bd
00000090: cc50 193d d02c f9bb 6c5e edbc 1ca8 f9bb
000000a0: 8551 af3c c35a 263d 70af 583b 00cf 40bc
000000b0: 198b 7f3d 12ca 1d3d 7b13 4bbd 8744 f2bc
000000c0: 7cfc e9bd 3559 c73e 13a6 14be ef4d a8bd
000000d0: 4cf9 083e 36e4 89bd 974b 3a3e 696a e3bd
000000e0: 21c0 40be 7a14 18be be20 513e ed0f e53e
000000f0: e3e1 1c3d a363 ba3d 9be1 9f3e 66e0 dc3e
00000100: 397c b3bc dc05 093a d829 81bc 97c7 0ebb
00000110: ec5c cdba c36d 91bb 4f05 7cbb bb19 1a3b
00000120: a602 e3bc b8ff ddbb b512 f039 be0f e8b9
00000130: 0cc7 e1ba af6e 66bc c499 bd3a 7e85 82ba
00000140: 70a1 5ebd b4cd e1ba 4a72 89bb 8da0 e3bd
00000150: d3ac c8ba 3213 8ebd a4b8 ed3b 720d 80bd
00000160: cc22 813d a55b 35bd 86bf 633a cf58 efba
00000170: 6025 a937 12ee 60bb 45f9 efba e623 1bbb
00000180: 3abb b73b 4a74 a0bd 820d 623c 0330 d2bc
00000190: 5b89 443d c87c 8a39 32c6 1ebd 468c 4e3c
000001a0: 7edc b13c 6f60 f63c 0c9c 11bd 5566 95bd
000001b0: c13e 6d3d a8c5 313b 842a 0dbd 3184 e3bc
000001c0: 94bb 95bd 833a cf3e 0481 febd 38fa 9abd
000001d0: 660b 7c3e 9a33 b7bd eb46 753e 2e15 e6bd
000001e0: 81d8 3ebe 92f1 e5bd 48de 903e f648 bd3e
000001f0: 510c 623e 0fe1 d13d a96c af3e 9244 bf3e
00000200: 78a2 a139 6488 853d 2a39 243a f6f7 fd3c
00000210: 1432 973d 1f54 cabc 8318 023e 7194 873c
00000220: 3354 62bc 5c3e cd3b fc32 0d3e 9a4f 3a3d
00000230: 692b 293c 3594 a2bd 75ed 703d 2b03 ad3b
00000240: 5211 07bc 51f7 11be 1da1 1fbd 6f08 c93c
00000250: 2861 61be 2c96 28bc 01bc 75be f54a c43c
00000260: 873d 0abd 3236 eb3a e585 38be afa7 09be
00000270: 3803 a9be af41 8abe c333 0bbe 50c3 1fbe
00000280: 1e9b bf3c 5617 ae3d 7f4b 193d 925e ce3c
00000290: 6d7a 4a3d ae92 bfb9 3ffe f33d 3f04 b9bc
000002a0: 314c 4dbd 9c76 23bd a297 cd3c c7b3 913d
000002b0: 9dfc 2f3d 8d06 6abd 876c e53d fc9c 163d
000002c0: 2c78 20bc 1c98 d0bd 6afe a6bc 2a80 ba3c
000002d0: c577 78be 1e76 7fbb 2d6b 83be 0bf8 e13c
000002e0: 1175 fdbc c23f ddbc 37f8 60be 5521 18be
000002f0: 91c5 9fbe 6093 82be 8d77 2dbe 0716 60bd
00000300: 26b6 90bc 59fc 913d 69a2 893b 58c5 1e3c
00000310: f839 1d3d e75d a9bc c19c 843d f08d 9ab9
00000320: f03f 08ba c747 14ba 75c0 bd3d 7824 3e3d
00000330: 63bf 05bc c7d9 d2bd 75c3 ce3d a66b 533c
00000340: 9844 84bb 03d3 26be 8e5a 07bd 99d2 8d3c
00000350: e7a9 abbe 4c5f 73bc 08cc 95be 84d1 7f3c
00000360: 4e0a f4bc 7d0a 29bc 9117 7ebe c615 22be
00000370: 5241 babe 13ee 98be c3a2 2fbe 486e 24be
00000380: faf6 163c 9067 ebbd 71a8 ae3b 100b f0bc
00000390: fc5e 62bd c54e 6cbc a6f1 0cbd 6a96 babb
000003a0: be49 c13c 814a a7bc 9cf4 84bd 5132 85bd
000003b0: 036b 5b3d 300a 543d 1fe4 77bd 7174 e2bc
000003c0: 2a99 72bd c551 bd3e da27 3dbd 6ff5 5fbd
000003d0: 2b04 2c3e 8cac 47bc 96d8 683e 5098 f2bc
000003e0: c98f abbd 8a43 4cbd a7fb 773e 1805 e03e
000003f0: 3d7e dd3e dc5d bc3d 3fd2 b13e a577 d13e

bias f4 [16]
0.43249616 0.2791619 -0.010051173 0.38060585 0.35960302 0.31929085 0.40968227 0.25586087
0.36924016 0.35665467 0.26684994 0.3496077 -0.018411908 0.3055405 -0.0032893324 0.34278303
00000000: 2370 dd3e 4fee 8e3e adad 24bc c5de c23e
00000010: e31d b83e 177a a33e e0c1 d13e 3200 833e
00000020: 0c0d bd3e 719b b63e 8ea0 883e c8ff b23e
00000030: 92d4 96bc ce6f 9c3e d791 57bb 4281 af3e

weight f4 [2, 16]
0.101680756 0.2915698 0.06469988 0.3713214 -0.14982475 -0.12896828 0.057520002 0.2591351
0.36030626 0.08685926 0.16791941 0.39815503 0.024360184 0.26872805 -0.18290317 0.25541523
0.23018768 -0.30194634 0.093300305 -0.069199316 -0.039319687 0.028667027 0.2020855 -0.2133583
-0.17936707 0.20507021 -0.2585248 -0.15056732 0.035071492 -0.35163537 -0.18527941 -0.33936054
00000000: 003e d03d a348 953e 5f81 843d d71d be3e
00000010: a96b 19be 4310 04be 189a 6b3d 5bad 843e
00000020: 107a b83e 45e3 b13d 11f3 2b3e fada cb3e
00000030: 028f c73c b996 893e f84a 3bbe c9c5 823e
00000040: 52b6 6b3e b698 9abe 3b14 bf3d 5fb8 8dbd
00000050: ae0d 21bd 1dd7 ea3c 80ef 4e3e 997a 5abe
00000060: 00ac 37be edfd 513e 5d5d 84be 522e 1abe
00000070: 20a7 0f3d 8d09 b4be e3b9 3dbe aac0 adbe

bias f4 [2]
-0.5235067 0.26671237
00000000: 8904 06bf 868e 883e
